…
670/670 [==============================] - 155s 231ms/step - loss: 0.0520 - mse: 0.0137 - acc: 0.9825 - val_loss: 0.2218 - val_mse: 0.0502 - val_acc: 0.9414
Evaluate...
210/210 [==============================] - 8s 36ms/step - loss: 0.2290 - mse: 0.0528 - acc: 0.9367
Test score: [0.2289762794971466, 0.05282977968454361, 0.9366596937179565]
WQ.shape (None, 256, 128)
K.permute_dimensions(WK, [0, 2, 1]).shape (None, 128, 256)
QK.shape (None, 256, 256)
Model: "sequential_13"
_________________________________________________________________
Layer (type)                 Output Shape              Param #   
=================================================================
embedding_13 (Embedding)     (None, 256, 128)          5037824   
_________________________________________________________________
self__attention_9 (Self_Atte (None, 256, 128)          49152     
_________________________________________________________________
lstm_13 (LSTM)               (None, 128)               131584    
_________________________________________________________________
dropout_9 (Dropout)          (None, 128)               0         
_________________________________________________________________
dense_9 (Dense)              (None, 2)                 258       
_________________________________________________________________
activation_9 (Activation)    (None, 2)                 0         
=================================================================
Total params: 5,218,818
Trainable params: 5,218,818
Non-trainable params: 0
_________________________________________________________________