…
Epoch 10/10
670/670 [==============================] - 136s 203ms/step - loss: 0.0106 - mse: 0.0021 - acc: 0.9973 - val_loss: 0.1595 - val_mse: 0.0292 - val_acc: 0.9645
Evaluate...
210/210 [==============================] - 6s 29ms/step - loss: 0.1654 - mse: 0.0330 - acc: 0.9603
Test score: [0.16541804373264313, 0.03296680748462677, 0.9602628946304321]
Model: "sequential_1"
_________________________________________________________________
Layer (type)                 Output Shape              Param #   
=================================================================
embedding_1 (Embedding)      (None, 256, 128)          5037824   
_________________________________________________________________
lstm_1 (LSTM)                (None, 128)               131584    
_________________________________________________________________
dropout_1 (Dropout)          (None, 128)               0         
_________________________________________________________________
dense_1 (Dense)              (None, 2)                 258       
_________________________________________________________________
activation_1 (Activation)    (None, 2)                 0         
=================================================================
Total params: 5,169,666
Trainable params: 5,169,666
Non-trainable params: 0
_________________________________________________________________

neg:87.76%
pos:0.31%