…
670/670 [==============================] - 150s 223ms/step - loss: 0.0613 - mse: 0.0163 - acc: 0.9800 - val_loss: 0.3473 - val_mse: 0.0798 - val_acc: 0.9040
Evaluate...
210/210 [==============================] - 7s 33ms/step - loss: 0.3392 - mse: 0.0791 - acc: 0.9053
Test score: [0.3392072916030884, 0.07911331206560135, 0.9052883386611938]
WQ.shape (None, 256, 128)
K.permute_dimensions(WK, [0, 2, 1]).shape (None, 128, 256)
QK.shape (None, 256, 256)
Model: "sequential_13"
_________________________________________________________________
Layer (type)                 Output Shape              Param #   
=================================================================
embedding_13 (Embedding)     (None, 256, 128)          5037824   
_________________________________________________________________
self__attention_9 (Self_Atte (None, 256, 128)          49152     
_________________________________________________________________
lstm_13 (LSTM)               (None, 128)               131584    
_________________________________________________________________
dropout_9 (Dropout)          (None, 128)               0         
_________________________________________________________________
dense_9 (Dense)              (None, 2)                 258       
_________________________________________________________________
activation_9 (Activation)    (None, 2)                 0         
=================================================================
Total params: 5,218,818
Trainable params: 5,218,818
Non-trainable params: 0
_________________________________________________________________