…
Epoch 10/10
670/670 [==============================] - 156s 233ms/step - loss: 0.0184 - mse: 0.0047 - acc: 0.9950 - val_loss: 0.3978 - val_mse: 0.0758 - val_acc: 0.9115
Evaluate...
210/210 [==============================] - 6s 30ms/step - loss: 0.3582 - mse: 0.0669 - acc: 0.9196
Test score: [0.35823723673820496, 0.0668935552239418, 0.9196295142173767]
Model: "sequential_1"
_________________________________________________________________
Layer (type)                 Output Shape              Param #   
=================================================================
embedding_1 (Embedding)      (None, 256, 128)          5037824   
_________________________________________________________________
lstm_1 (LSTM)                (None, 128)               131584    
_________________________________________________________________
dropout_1 (Dropout)          (None, 128)               0         
_________________________________________________________________
dense_1 (Dense)              (None, 2)                 258       
_________________________________________________________________
activation_1 (Activation)    (None, 2)                 0         
=================================================================
Total params: 5,169,666
Trainable params: 5,169,666
Non-trainable params: 0
_________________________________________________________________


neg:57.90%
pos:6.75%